output/best_model.npz (npz, 401710 bytes, 6 tensors)

arr_5 f4 [61]
000000 75 be 17 be 3c 94 6b 3b de ea f9 bd 67 e7 a7 3d
       -0.14818747 0.003594651 -0.122030005 0.08198433
000010 9c 77 38 be 3e 9b a0 bd 2b 8f 70 3d 52 4d 14 3e
       -0.18014377 -0.0784211 0.058730286 0.1448262
000020 ac 4d 8f 3d 3e 6c 3a 3e 23 74 ba 3d c8 4d d9 3d
       0.069972366 0.18205354 0.091041826 0.10610539
000030 91 0b af bd 31 23 81 3d 5e 8b 23 be 66 ed d8 bd
       -0.08547128 0.0630554 -0.15971133 -0.10592155
000040 5d e8 a9 3e 95 dc 56 3d ea ef 13 3e c9 c0 af be
       0.33185092 0.052456457 0.14446989 -0.3432677
000050 5a 57 b4 3d e8 89 c2 bd bc f3 4d 3d 14 3b 3b bd
       0.088057235 -0.0949896 0.05028127 -0.04571064
000060 01 18 12 3e fb 58 0b 3e 59 01 4a bd a7 b4 bb be
       0.1426697 0.13608162 -0.04931769 -0.36661264
000070 02 44 eb bd 20 12 ea be ef ce 7a be b9 a8 21 3e
       -0.11487581 -0.45716953 -0.24493001 0.15787019
000080 82 d4 09 3e 22 95 63 3c 59 12 ff bd 63 a2 9f bd
       0.13459972 0.0138905365 -0.124546714 -0.07794645
000090 3e 05 39 be 74 32 cf bc 5b ce 7b 3e c1 66 15 3e
       -0.18068406 -0.025292613 0.24590437 0.14589979
0000a0 30 45 25 3e a0 41 3b 3e e8 35 ed 3d 30 f5 49 3e
       0.16139674 0.18286753 0.115825474 0.19722438
0000b0 da 13 fe bd a5 1d 4e 3e a5 f5 61 3d 9f 34 b5 3d
       -0.1240613 0.20128496 0.055165906 0.08847927
0000c0 5b d4 99 bd 8f 52 ed 3d 7e ce 06 be 7f 7e 16 be
       -0.07511207 0.115880124 -0.13164708 -0.14696692
0000d0 c7 73 9b 3d 40 54 99 3d a0 0c 99 3d 95 e2 42 3e
       0.07590442 0.074867725 0.07473111 0.19031747
0000e0 c3 1d 0d 3c b3 1a a0 be 23 dc 1f 3d 12 aa 2a be
       0.008613053 -0.3127037 0.039028298 -0.16666439
0000f0 a6 41 84 bd
       -0.06457834

arr_1 f4 [26, 275]
000000 c5 5f ac 3e bb 8a 4f 3e 59 17 8f 3e 02 36 bd 3e
       0.33666816 0.20267765 0.279475 0.36955267
000010 cf 3e 8d 3e 09 2f af 3e 1f ba 9c 3e b4 6b a0 3e
       0.27586982 0.34215572 0.3061075 0.3133217
000020 56 ad ad 3e 3c c4 74 3e 74 e8 a5 3e a5 6f 9e 3e
       0.33921307 0.23902982 0.3240391 0.30944553
000030 48 9d a0 3e c7 35 a9 3e 30 8e 80 3e 82 f0 93 3e
       0.31369996 0.3304884 0.2510848 0.2889443
000040 d2 c7 9d 3e 41 99 b8 3e 6c ac 93 3e 37 0f b1 3e
       0.30816513 0.36054423 0.28842485 0.3458192
000050 58 d7 b5 3e 60 1e b9 3e b0 70 bd 3e 88 78 ab 3e
       0.35515857 0.36155987 0.37000036 0.33490396
000060 4a 11 a6 3e 8d 41 a6 3e 00 82 b8 3e 23 ef a0 3e
       0.32435066 0.32471886 0.36036682 0.31432447
000070 de 65 b4 3e 18 39 99 3e af bd ae 3e 02 aa cd 3e
       0.35233968 0.29926372 0.34129092 0.40168768
000080 38 f3 98 3e 01 6b b4 3e de bd 6a 3e 1b 07 98 3e
       0.2987306 0.35237888 0.22923991 0.2969292
000090 1f b5 92 3e 42 69 8d 3e d7 8a a4 3e 91 88 a0 3e
       0.2865381 0.27619368 0.32137176 0.31354192
0000a0 8d 49 cd 3e a4 53 76 3e db cd 59 3e 05 2e ad 3e
       0.40095177 0.24055344 0.21269934 0.33824173
0000b0 06 a3 af 3e ef 4b ae 3e c6 0c 91 3e d4 f8 5f 3e
       0.34304065 0.34042308 0.28330058 0.21872264
0000c0 c3 3b b0 3e bd 66 cd 3e d6 a7 94 3e fb 60 83 3e
       0.34420595 0.40117446 0.290343 0.25659928
0000d0 85 17 b4 3e 76 3f 8e 3e 0c 44 98 3e 2e 2b a6 3e
       0.35174194 0.27782792 0.29739416 0.32454818
0000e0 57 21 a1 3e 3a 7a 80 3e e1 55 a2 3e 18 d5 69 3e
       0.3147075 0.2509325 0.31706145 0.22835195
0000f0 d3 8f 85 3e 40 ff 9b 3e ca 37 93 3e 91 e9 83 3e
       0.26086292 0.30468178 0.287535 0.25764135
000100 1a 1a 8b 3e ba 7f bb 3e 70 e0 83 3e e2 71 b2 3e
       0.2716835 0.36620885 0.2575717 0.3485251
000110 2e a6 a7 3e b4 e6 b7 3e b5 37 c6 3e 04 e2 b4 3e
       0.32743973 0.359182 0.38714376 0.35328686
000120 9a ea 92 3e 82 41 6c 3e d9 95 dc 3e 3b 14 ad 3e
       0.28694612 0.23071864 0.43083075 0.33804497
000130 12 67 90 3e d8 36 a9 3e 50 bf b5 3e 93 fd ad 3e
       0.28203636 0.33049655 0.35497522 0.33982524
000140 df d0 9d 3e 42 8f 9b 3e 47 ed b8 3e f1 f1 93 3e
       0.30823418 0.30382735 0.36118528 0.28895524
000150 f8 01 84 3e 70 03 8b 3e 60 3e b1 3e 3c 36 9e 3e
       0.25782752 0.2715106 0.346179 0.30900753
000160 2c 16 86 3e b1 65 6a 3e 57 21 7a 3e 12 b8 bd 3e
       0.2618879 0.22890355 0.2442678 0.37054497
000170 b3 d4 a4 3e d5 2c 9a 3e 86 6e 84 3e 09 2b 9b 3e
       0.32193527 0.3011233 0.25865573 0.3030627
000180 b2 e8 ba 3e 2a d2 8a 3e 0e c6 a7 3e 95 c8 86 3e
       0.36505657 0.27113467 0.3276829 0.26324907
000190 c4 48 8f 3e 11 00 a2 3e 67 97 a0 3e 9a f0 a7 3e
       0.27985203 0.31640676 0.3136551 0.32800752
0001a0 f9 48 a8 3e be d1 a9 3e 5f 2c b2 3e 8d ba a4 3e
       0.32868174 0.33167833 0.34799477 0.32173577
0001b0 b1 40 8b 3e 72 12 c2 3e 9e 73 b4 3e 90 3d 96 3e
       0.27197793 0.37904698 0.3524446 0.29343843
0001c0 07 91 6e 3e 14 5e 9b 3e f4 df 9a 3e 38 cd 91 3e
       0.23297511 0.30345213 0.30248988 0.28476882
0001d0 74 29 a0 3e 26 bc 8c 3e e6 86 a2 3e 01 07 9e 3e
       0.31281626 0.27487296 0.31743544 0.3086472
0001e0 c9 f4 aa 3e 09 02 a0 3e 3c ff 8d 3e 77 c8 72 3e
       0.3338988 0.31251553 0.2773379 0.23709284
0001f0 f0 74 b7 3e ad ca 8a 3e 30 13 7d 3e 1f 24 a6 3e
       0.35831404 0.27107754 0.2471435 0.32449433
000200 e0 fa 8c 3e 8a cb ad 3e df 9d ba 3e a7 b2 84 3e
       0.27535152 0.3394435 0.3644857 0.2591755
000210 c6 8e 8a 3e 5f c1 9b 3e b9 6e a8 3e dd 3e b4 3e
       0.27062052 0.30420968 0.32896975 0.3520421
000220 17 22 88 3e 6c 55 94 3e a5 34 b8 3e bd 34 a1 3e
       0.26588508 0.28971422 0.35977665 0.3148555
000230 89 50 ba 3e fe d8 8b 3e 30 6f 8b 3e 12 32 a0 3e
       0.36389568 0.2731399 0.27233267 0.312882
000240 82 5d 93 3e af 0d 92 3e 3c 20 b4 3e cc 3a a3 3e
       0.28782278 0.28526065 0.35180843 0.31880796
000250 f2 35 96 3e 30 7f 8b 3e 06 48 93 3e 2a 27 d4 3e
       0.29338032 0.27245474 0.28765887 0.4143613
000260 71 e7 9a 3e fa 44 98 3e 82 ff 66 3e d7 b9 89 3e
       0.302547 0.29740125 0.22558406 0.26899597
000270 1f 7d 7b 3e 43 df 8e 3e 41 8a 84 3e 36 61 97 3e
       0.24559449 0.2790471 0.2588673 0.29566354
000280 2a a3 7d 3e d2 15 9e 3e 93 28 96 3e 6a 76 b3 3e
       0.24769273 0.30876023 0.2932783 0.3505128
000290 ac 8d 8c 3e 8a 75 a3 3e 5f ba 9e 3e 78 37 78 3e
       0.27451837 0.31925613 0.31001565 0.2423991
0002a0 61 dc 9a 3e 7a 87 6c 3e 62 4c ba 3e 48 44 a9 3e
       0.3024626 0.23098555 0.363864 0.33059907
0002b0 9b 2e 8f 3e ae 9f 82 3e 61 2d a4 3e 86 3a 93 3e
       0.27965245 0.2551245 0.3206587 0.28755587
0002c0 3f 34 b5 3e f3 36 a2 3e a0 59 95 3e 6f 03 b1 3e
       0.35391423 0.31682548 0.2916994 0.34572932
0002d0 e3 60 77 3e 9e fe 9c 3e 31 f4 b1 3e d2 d2 a9 3e
       0.24158053 0.30663007 0.34756616 0.33168656
0002e0 3b ce a8 3e 18 0d 99 3e 3a ba b7 3e 85 e2 c1 3e
       0.3296984 0.29892802 0.35884267 0.37868133
0002f0 76 77 6a 3e 26 5c c0 3e fa af 90 3e 1b 9a 87 3e
       0.22897133 0.37570304 0.2825926 0.2648476
000300 57 0b ae 3e ab d4 9e 3e 94 f2 84 3e 3c ae 8e 3e
       0.33993027 0.31021628 0.25966322 0.27867305
000310 85 1c af 3e 51 70 ba 3e c0 d3 99 3e 0a e5 9c 3e
       0.34201446 0.36413816 0.30044365 0.30643493
000320 23 17 8c 3e 97 fb 99 3e e3 51 90 3e b9 21 7e 3e
       0.27361402 0.3007476 0.28187475 0.24817552
000330 1d cc 98 3e f9 38 a8 3e f6 46 87 3e 1c f7 aa 3e
       0.29843226 0.32855967 0.26421326 0.33391654
000340 5d 1a 86 3e f8 5d b6 3e ed 91 b8 3e 86 71 91 3e
       0.2619199 0.35618567 0.36048833 0.28406924
000350 58 cd b5 3e 63 9a c5 3e 6f c3 a4 3e d2 3d 90 3e
       0.35508227 0.3859435 0.32180354 0.28172165
000360 ec 07 b1 3e a6 cf 80 3e 14 78 bb 3e 2b c3 b1 3e
       0.34576356 0.25158423 0.3661505 0.34719214
000370 2c e7 5c 3e a4 28 cb 3e 15 ce b4 3e 27 5c 9f 3e
       0.2157256 0.39679444 0.35313478 0.31124994
000380 6b 20 b7 3e 6a d6 a3 3e ef e8 78 3e 21 16 c8 3e
       0.3576692 0.31999522 0.24307607 0.39079383
000390 28 1a af 3e 71 5f a2 3e 75 5a b0 3e 0d 91 b8 3e
       0.34199643 0.3171344 0.34444013 0.36048165
0003a0 75 6f b7 3e 5b 8d b7 3e ae 51 c4 3e 7a f9 a8 3e
       0.35827222 0.35850033 0.38343567 0.33002836
0003b0 93 9b 9f 3e a5 66 79 3e c1 96 98 3e cf 0b c5 3e
       0.3117338 0.24355562 0.29802516 0.38485572
0003c0 b5 ff 6e 3e 69 44 93 3e e5 22 ae 3e fa 76 ac 3e
       0.23339732 0.2876313 0.34010997 0.33684522
0003d0 5a 5f bc 3e 43 7b 88 3e 26 63 a4 3e 83 5b 6c 3e
       0.36791497 0.2665654 0.32106894 0.23081784
0003e0 4d 12 ba 3e cf b7 92 3e c3 9a b6 3e 99 0e 98 3e
       0.36342087 0.2865586 0.3566495 0.29698637
0003f0 d1 da a6 3e d6 60 9d 3e c7 62 8b 3e 0c f9 9d 3e
       0.3258882 0.30737942 0.272238 0.3085407

arr_3 f4 [275, 275]
000000 6a 0f 48 3c da f7 d0 bd 0e e2 2a bd b9 98 b1 3d
       0.012210706 -0.10203524 -0.04171949 0.08671708
000010 a5 20 25 bd 12 12 a1 3b 03 23 0f 3c 3f 20 90 3d
       -0.040314335 0.004915484 0.008736375 0.070374005
000020 ee f6 a6 bd d7 b4 e8 ba 86 f1 cf bd 65 ec 16 bd
       -0.08152567 -0.001775409 -0.10153489 -0.036846537
000030 00 89 18 bd e1 9d 29 bd 76 c1 9c bd 15 90 a1 bc
       -0.03724003 -0.04141033 -0.07654087 -0.019722024
000040 e3 f8 7d 3d 3e db af 3d cd b6 66 3d f2 c6 e2 bc
       0.062004935 0.08586739 0.056326676 -0.027682755
000050 1e 1d 89 bc 65 6c 12 bd 80 95 81 bc cf 1c 17 bd
       -0.016737517 -0.035747904 -0.015818357 -0.03689271
000060 c3 ef c0 bd 14 2c b4 3d 9d 85 35 3d f5 4f 69 bd
       -0.09420731 0.0879747 0.044316877 -0.05696102
000070 87 52 83 3d 8a d9 90 bc 78 a3 89 bc 6a 89 d7 3a
       0.06412225 -0.017681856 -0.01680158 0.0016444151
000080 4e 62 96 3d 80 a4 54 bc 84 d7 a6 3d 34 65 d7 bc
       0.07342969 -0.012978673 0.08146575 -0.026293375
000090 f0 4c ae bc 09 39 a4 bc 93 02 7f bd fa 63 17 3d
       -0.021276921 -0.020046728 -0.062258314 0.03696058
0000a0 35 05 f8 bc b7 0b 52 3c 67 ef f5 3b d3 02 cb bc
       -0.03027592 0.012820176 0.0075053456 -0.02478162
0000b0 41 bc 4e 3d a4 de 10 3b 28 61 48 3d 94 7c 3e bd
       0.0504725 0.002210536 0.04892078 -0.046505526
0000c0 6e 56 b0 bd f3 27 18 bd 40 4f a9 3d 48 5b 28 3d
       -0.08610235 -0.037147474 0.08267069 0.041102678
0000d0 b3 97 93 3d ee 57 9d bc d7 93 95 bd 62 77 3a bd
       0.07206669 -0.019206967 -0.07303589 -0.04552401
0000e0 e1 72 dc bd 7f a6 87 bc e2 4d f3 bc 88 9c b3 bd
       -0.10764099 -0.016558884 -0.029700223 -0.0877009
0000f0 e9 84 3a bd 84 3c a6 3c f2 da b3 3d f9 9a c0 bd
       -0.04553691 0.020292528 0.08781995 -0.09404559
000100 e5 81 34 bd 1c b1 da bd d2 a7 c1 bd eb ec 11 3d
       -0.04406919 -0.10678312 -0.09455837 0.035626333
000110 18 e3 d2 bd d0 47 35 bd ac f9 b3 bd 51 22 24 3d
       -0.10297221 -0.04425794 -0.087878555 0.04007179
000120 25 25 43 3d d2 53 c3 bc d0 91 61 3d d1 8c 1d bd
       0.047642846 -0.02384368 0.0550707 -0.03846437
000130 53 38 3d bd 9e 04 02 3b fd d7 9a bd e0 02 dd bd
       -0.046196293 0.0019839178 -0.07560728 -0.10791564
000140 e1 77 62 bd 10 26 48 bd df c6 65 bd 77 b5 bf 3b
       -0.055290107 -0.048864424 -0.05609786 0.0058504897
000150 19 a3 6e bd ef 6b dd bb f2 7c 7b bd c5 14 32 3d
       -0.05826101 -0.0067572515 -0.061398454 0.04347684
000160 2c 80 48 3d 68 c9 4c bd ec b3 b3 bd 1f 3e b9 bd
       0.04895036 -0.049996763 -0.08774552 -0.09045052
000170 f6 f9 a3 bc 15 9e e6 bd d5 53 9a bd ac 52 04 bd
       -0.020016652 -0.112606205 -0.07535521 -0.032305405
000180 bf 25 98 3c 5c f4 a4 3d 6a 4d b2 3c b7 fa 37 bc
       0.018572686 0.0805442 0.02176543 -0.011229209
000190 3a ed 1c 3d 1e 5f 6f bd 02 30 88 3d 01 07 81 3a
       0.038312174 -0.05844032 0.06649782 0.0009844006
0001a0 d2 11 a0 39 28 f4 69 bc 43 ff 38 bc 36 19 a7 bc
       0.00030530855 -0.014279403 -0.011291328 -0.020397764
0001b0 e0 74 5f bd d6 5a d6 bc d0 24 92 bd 82 28 c4 ba
       -0.05455482 -0.02616636 -0.07135928 -0.0014965686
0001c0 e5 ff da 3c ab 7f 0a bd 21 91 16 3c b8 54 b6 3c
       0.026733348 -0.03381316 0.009189875 0.022257194
0001d0 72 cc ea bc 64 d0 bf 3c 48 39 7a 3c e6 e7 64 3d
       -0.02866194 0.023414798 0.015272446 0.055885218
0001e0 7c 07 58 bc bb d9 1d 3c ad d0 f0 bc f8 ad 99 3d
       -0.013185378 0.0096344305 -0.02939638 0.07503885
0001f0 c2 81 a9 3d ca 29 b0 3c 42 81 a7 3d 29 76 8d bd
       0.082767025 0.021504302 0.08178951 -0.06907303
000200 47 7e 86 bd 61 48 75 bd 56 d6 a2 3d e4 32 ec 3c
       -0.06567054 -0.05988348 0.079510376 0.02883286
000210 ce 55 11 bc 9f 56 27 bc 20 30 20 3d 29 ad a1 bd
       -0.008870555 -0.010213523 0.039108396 -0.07894356
000220 40 ef e0 b9 5c 9a 81 3d b3 93 8c bd 7b 43 67 bc
       -0.00042902865 0.0632827 -0.06864109 -0.01411521
000230 c7 ec e6 3c 3f 96 99 3d a9 e0 d2 3c 9c ce 6b 3d
       0.028189076 0.0749936 0.025741892 0.057570085
000240 1b af 8f 3d 6c dd 7f bc 13 a4 4a 3b d7 4c 83 bd
       0.070158206 -0.015616756 0.003092055 -0.064111404
000250 1a 98 ff 3c 25 50 88 3d f0 f4 de bd d6 c5 a9 bc
       0.031200457 0.06655911 -0.10886562 -0.020724218
000260 8c 67 19 bd de 83 e9 3c fa a2 90 3c a1 fb a6 3c
       -0.037452266 0.028505262 0.017655838 0.020383658
000270 3c 98 b4 bd db 10 df bd 30 bc 24 3b 46 1b b7 3d
       -0.08818099 -0.10891887 0.0025136583 0.08940749
000280 44 fa 86 bc 7c e7 bd 3b cb ca aa bd f0 16 22 bd
       -0.016476758 0.0057954174 -0.08339461 -0.039572656
000290 37 05 a1 3c 47 13 37 3d 4a 2b ad 3d a2 4f a1 bd
       0.019655807 0.04469612 0.08455522 -0.07876517
0002a0 23 1b 5c bd da 5b ce bd 0f b8 8b 3b 73 f8 17 bb
       -0.053736817 -0.10076113 0.004263885 -0.0023188859
0002b0 5e 03 b5 bc 31 40 d3 bc 6a af 98 bc cd 11 12 3b
       -0.022096332 -0.025787445 -0.018638331 0.0022288442
0002c0 ae c1 c9 bc 4f 02 5b 3d 56 0f 2a bd 7a 1e fb bb
       -0.024628486 0.053469 -0.04151853 -0.007663545
0002d0 e5 cc 2b bc c6 f3 03 3c 88 3e e9 bc e7 71 b6 bc
       -0.010485862 0.008053726 -0.0284722 -0.02227111
0002e0 08 ca ca bd de 40 7d 3d 6e 70 9d 3d 86 34 aa bc
       -0.09901816 0.06182944 0.0768746 -0.020776998
0002f0 27 37 c1 bd b2 43 b6 bd 2e 89 d5 3a d6 0f 6d bd
       -0.094343476 -0.088996306 0.0016291493 -0.05787643
000300 7f f9 e3 3c 3c e7 c3 bd cd 2b d2 bd 3c 86 42 3d
       0.02782893 -0.09565589 -0.102622606 0.047491297
000310 a4 e7 78 3d 90 f3 1d 3c cc 71 de 3c 3c af a0 3d
       0.060767785 0.009640589 0.027153872 0.07845923
000320 8c 3d 96 bd e8 7b 4a bd d4 1c a2 bd c4 5a bc bd
       -0.07335958 -0.049434572 -0.07915655 -0.09197
000330 41 f0 5c bb 89 d8 04 3d 14 96 98 bc 07 cf 71 3d
       -0.0033712538 0.032433067 -0.01862625 0.059035327
000340 14 40 8f bd a0 2b 0b 3d 9b 6f a2 bd a3 01 83 bc
       -0.06994644 0.03397715 -0.07931443 -0.015991991
000350 9a 10 61 3d 06 fa da bd 27 95 36 bd 0c 18 73 3c
       0.054947473 -0.106922194 -0.044575837 0.014837276
000360 e2 c2 d8 3c 38 04 c8 3c a2 f7 aa bd 4d 6c cc 3c
       0.026460115 0.024416074 -0.083480135 0.024953986
000370 1d 5c 88 3c e1 6c a3 3d 17 41 86 3d 58 18 96 3d
       0.016645486 0.079797514 0.06555384 0.07328862
000380 4f 96 92 3d b5 5f 0a 3d 7d 6b e6 bd 2c fc a1 bd
       0.07157575 0.03378268 -0.112509705 -0.07909426
000390 be ad c1 bd 38 b6 70 bd a0 0a 22 3d ec 1a 90 bd
       -0.09456967 -0.058767527 0.039560914 -0.07036385
0003a0 1b b4 b1 3d cf 4d b0 bd 2a 76 da bd 85 d6 6f bd
       0.086769305 -0.08608591 -0.10667069 -0.05855419
0003b0 3f 8f 9a bc 8f 0e e3 bc ad a3 a5 3d 55 64 9d 3d
       -0.018867133 -0.027716903 0.08087859 0.076851524
0003c0 9c 83 12 3d 88 28 87 3d 24 74 5f 3d db cd 93 bd
       0.035770044 0.065995276 0.05455412 -0.07216998
0003d0 e1 0b 9c 3d 19 10 f9 3c 7a b7 58 3d 60 88 53 bd
       0.07619453 0.030403184 0.052909352 -0.05164373
0003e0 db 2d 41 bd c4 52 e3 3c 89 3e 94 3c 07 f3 c2 3c
       -0.04716287 0.027749427 0.018096225 0.023797525
0003f0 0e f7 6a bd a4 1d 42 bd 29 81 50 bc bd 28 ba bd
       -0.057364516 -0.04739155 -0.012726107 -0.090898015

arr_4 f4 [275, 61]
000000 8f 8d bd bd 67 3b ed bc 38 fd c6 bd 9e bf 8c 3d
       -0.09255516 -0.02895899 -0.097162664 0.068724856
000010 3f c6 bc 3d f6 6d 5a bd b2 76 82 3d 2c 58 f9 3d
       0.092175 -0.053327523 0.063702956 0.121750206
000020 51 fe a4 3d 0f 59 d3 3d 9b bc 9a 3d 6f 3a 60 bc
       0.080563195 0.10319721 0.07555505 -0.013685807
000030 4e 38 60 bd 2f b1 8a bc 64 53 d7 bc 2f 23 ab bd
       -0.054741196 -0.01693019 -0.026284881 -0.0835632
000040 e1 d8 84 bd 56 3e b5 bd a3 63 3a bc 38 b7 45 3d
       -0.06486679 -0.0884978 -0.011376294 0.048270434
000050 21 ba 96 3d 0e df c7 bd 91 7b 8c bd 36 d4 f3 bd
       0.0735972 -0.09759341 -0.06859506 -0.119057104
000060 f2 69 5a 38 59 e5 7c bd e7 9e 58 3d cc 1e 12 3d
       5.207392e-05 -0.06174216 0.052885916 0.0356739
000070 49 aa 8b 3d 3a 38 de bd 69 67 9e bd 81 1f 09 3e
       0.06819589 -0.10850568 -0.07734568 0.13390924
000080 7b bf cc bd fa 64 b0 bd b0 f4 19 3d cb 7b 82 bd
       -0.099974595 -0.0861301 0.037586868 -0.06371268
000090 d8 6b 61 bd 62 14 8a 3c a7 43 06 3e a7 f2 e2 3c
       -0.05503449 0.016855422 0.13111745 0.027703596
0000a0 83 27 a4 bc 83 82 be bc fe 2e d8 3a d8 7d 05 bd
       -0.020038372 -0.023255592 0.0016493497 -0.032590717
0000b0 6a a9 c0 bd af a9 a0 bd 14 1d ac bd 76 66 46 bd
       -0.09407313 -0.078448646 -0.08403984 -0.048437558
0000c0 a6 b2 8c 3d 25 f7 65 3d 11 68 a5 3d 75 01 b4 bd
       0.06870012 0.0561439 0.0807649 -0.087893404
0000d0 b5 0f bb 3d 37 6c 35 3d d9 23 80 3d 94 2c 1f 3d
       0.09133855 0.044292655 0.062568374 0.038860872
0000e0 90 10 8e bd 44 17 a4 3d ab b3 fc bc 2c 35 5d bd
       -0.06936753 0.0801225 -0.030847391 -0.054005787
0000f0 27 f0 ed 3d 6d f3 7d bc 3a c8 b9 bc e9 18 ee 3b
       0.11618071 -0.015499932 -0.022678483 0.007266153
000100 67 50 6b bd 39 1f a6 bd 75 d6 87 3b 28 45 70 3d
       -0.057449725 -0.08111424 0.0041454383 0.058659703
000110 a3 bc aa bb 25 74 d8 3d a1 9d f4 3d b2 ed 00 3e
       -0.0052104755 0.10569028 0.11944128 0.12590674
000120 05 c3 f2 3d 7b af b8 3d a4 ca 4b 3d 7f 5d 26 bd
       0.11853603 0.09017845 0.0497538 -0.04061651
000130 44 23 1c be aa 4b 05 3e c2 64 6b 3d ad 4a b0 3d
       -0.15247828 0.13017145 0.057469137 0.08607993
000140 27 5e 2c be 24 8a 21 3c 00 b1 02 bd 10 c3 16 bc
       -0.16832791 0.009859595 -0.03190708 -0.00920178
000150 0a a7 fd bb 04 31 1d 3e 4a 29 dc bc 0a d9 9c 3d
       -0.00774086 0.15350729 -0.026875157 0.076585844
000160 9f 7a e2 bd 2a 4b 7c 3b 67 f6 b1 bd 04 3d 11 be
       -0.11058544 0.003849695 -0.08689576 -0.14183432
000170 e7 60 e0 3d 2f 54 f6 bc 54 8d 1c bd 36 9e 88 3d
       0.10955983 -0.030069439 -0.03822072 0.06670801
000180 ef 9c 14 be ea a7 97 bd c1 ac 44 3d 0c 5c 61 3d
       -0.1451299 -0.07405074 0.048016313 0.055019423
000190 0c 4d 9f 3d 6c 0a 1f 3e 28 0b 16 3e 4e 26 bd 3d
       0.077783674 0.1553132 0.14652693 0.09235822
0001a0 dd d8 02 bd 6f 9f ef bd e3 1f 43 3d a8 5d 67 38
       -0.0319451 -0.117003314 0.04763783 5.5161916e-05
0001b0 2e 06 74 3d 39 05 5a bd 02 b3 a1 3c 21 23 1c 3c
       0.059576206 -0.053227637 0.019738678 0.00952986
0001c0 83 6c d2 3c f3 7f a4 bd 7e 74 80 bd b7 b2 a0 bc
       0.025686508 -0.08032217 -0.06272219 -0.019616468
0001d0 68 6b 7b bd 6a ea d1 bb f1 8e 46 bd 07 b9 f4 3b
       -0.061381727 -0.006406118 -0.048476163 0.007468346
0001e0 78 0b 19 be 90 0e de 3d 5c f7 68 3d 47 0f 8e 3d
       -0.14945781 0.10842621 0.056876525 0.06936508
0001f0 fe 9b 10 bd f1 e0 0c 3e 75 ac eb bd 61 30 8f 3d
       -0.035305016 0.13757683 -0.11507503 0.069916494
000200 12 fd ed 3d 97 64 30 3c 7a e8 9f bd 06 46 be 3d
       0.11620535 0.01076617 -0.07808013 0.092907
000210 a1 b3 75 3d 0f cf 12 bd 40 c2 ca bd 62 77 59 bd
       0.05998576 -0.035841998 -0.099003315 -0.053092368
000220 73 c3 b8 bd 3e c7 fb bc 20 37 19 3e a4 02 3d bd
       -0.09021654 -0.030734655 0.14962435 -0.046145096
000230 47 78 9e 3d d3 14 23 be f4 1a 83 bc 6e 50 82 bd
       0.07737785 -0.15925913 -0.016004063 -0.06362997
000240 dc 6a d9 3d c1 2b c4 3b c4 e2 d5 3d 08 12 63 3d
       0.10616085 0.005986661 0.10443643 0.055437118
000250 49 8a 35 bd 08 00 89 bc e4 40 8d 3d 56 c4 38 be
       -0.044321332 -0.016723648 0.068971425 -0.18043646
000260 2a ee ae 3c f0 6d d2 bc 14 b8 1e 3e ea 0b c2 bc
       0.0213538 -0.025687188 0.15499908 -0.023687322
000270 58 fe f9 bd 8e 21 fe bd 8b 14 ac 3c 17 45 9a bc
       -0.12206715 -0.12408744 0.02100589 -0.018831773
000280 2e 13 1e 3e 6a 09 12 3e 0d 22 de 3d 61 d1 08 3e
       0.15437004 0.14261404 0.108463384 0.13361122
000290 30 9b b6 3d d0 5d 86 3d ac 05 5d bd 2f b6 1c bc
       0.089163184 0.06560862 -0.053960487 -0.00956492
0002a0 cd 31 dd 3d d5 00 ad 3d bb 93 70 bd 56 ee 6f bd
       0.10800514 0.08447424 -0.058734637 -0.058576904
0002b0 e4 f0 4b 3b a3 21 fc bc fe 30 25 3d 41 d9 77 bc
       0.0031118924 -0.030777758 0.040329926 -0.015127481
0002c0 32 2d 9b bd 38 39 5b 3d 55 d7 fc bc 76 1c 66 be
       -0.0757698 0.053521365 -0.030864397 -0.22471794
0002d0 2c 85 db 3d 00 ca bd bd a9 3d 83 3d dd 43 10 be
       0.1071876 -0.09267044 0.06408245 -0.14088388
0002e0 cf 14 41 bc 62 cf 1a be b3 6b ec 3d 73 76 6b bd
       -0.011784746 -0.15118173 0.115439795 -0.05748601
0002f0 c0 2b b5 3d 75 c2 fd 3d 0e 10 ac bd 90 6b f9 3c
       0.08846235 0.12390605 -0.084015 0.030446798
000300 b2 13 53 3d 59 da a7 bd 50 fd d2 3d 48 5b a2 bd
       0.051532455 -0.081959434 0.10302222 -0.07927567
000310 51 b5 a4 bd f5 6f 9b bd 9b 59 2b ba 5a bf 0d 3e
       -0.08042396 -0.075897135 -0.00065364846 0.13842526
000320 d3 3e 20 3d 33 c5 02 3d a2 13 f5 bc 58 e1 f6 3d
       0.039122414 0.031926345 -0.029916588 0.120547
000330 ef 7f e6 bc 87 b0 eb 3d b7 04 a4 bd 56 1a 0a 3d
       -0.028137175 0.11508279 -0.08008712 0.033716522
000340 93 67 1d 3e ce 36 40 bc 43 93 07 be 02 63 e4 3c
       0.15371542 -0.011731816 -0.1323977 0.027879242
000350 4c 0a e5 bd 26 a1 91 3d 80 7a 86 3d 79 06 4f bd
       -0.111836046 0.07110815 0.06566334 -0.050543282
000360 47 51 28 3d 80 2b 5e 3d c8 59 12 be f4 6b 23 be
       0.041093137 0.054240704 -0.14292061 -0.1595915
000370 e8 08 60 3b 6b 67 09 3e 40 98 5b 3c 4a 66 99 3c
       0.0034184996 0.13418357 0.013402998 0.018725533
000380 d4 49 1c bd 0c f1 ab 3c 8c 82 74 bd fe 34 9a 3d
       -0.038156345 0.020988964 -0.05969481 0.07529639
000390 d7 e8 9e 3d f9 cf 78 bd af 4d d9 3d a8 ec 20 3d
       0.077592544 -0.060745213 0.1061052 0.039288193
0003a0 ec 15 86 bd b1 e9 5a 3d 48 9c 8d 3d 8b 42 90 bd
       -0.0654715 0.05344552 0.06914574 -0.07043942
0003b0 f9 07 0f 3d b2 87 0e 3d ed 34 fe bc 92 0b 17 3d
       0.034919713 0.034797378 -0.031031096 0.03687627
0003c0 ab 41 7b bd c9 20 04 3d b5 3c 22 be 73 88 33 bd
       -0.061341923 0.03225783 -0.1584347 -0.0438313
0003d0 a1 d8 4a 3d 9a ce 01 3e 6b 17 8c bd 9c 80 aa 3d
       0.049523 0.12676468 -0.06840404 0.083253115
0003e0 10 08 4b bd d4 75 93 bd 94 88 51 3d f6 92 38 3d
       -0.049568236 -0.07200208 0.05115564 0.045062028
0003f0 64 0b c4 bc 5b fd a4 bd ea 17 e4 bc 17 6f 10 3d
       -0.023931213 -0.08056136 -0.027843434 0.035262194

arr_2 f4 [275]
000000 a5 9f 68 bd 14 27 88 bd ec 81 9e bd df 7d 8e bd
       -0.056792874 -0.066480786 -0.077396244 -0.06957602
000010 ba 39 ad bd a1 20 99 bd 1b 03 82 bd 00 10 bb bd
       -0.08458276 -0.074769266 -0.063482486 -0.09133911
000020 4d 0a 86 bd 07 1f 95 bd 7f e1 bb bd 3a 16 a4 bd
       -0.065449335 -0.072813086 -0.09173869 -0.08012052
000030 6b de ac bd a6 7e 79 bd 2b ef 8c bd 96 46 9e bd
       -0.0844086 -0.060911797 -0.06881555 -0.07728307
000040 be 6c 72 bd fe e3 b2 bd 79 ec 9e bd b4 46 8b bd
       -0.059185736 -0.08734892 -0.07759947 -0.06800595
000050 66 db bd bd 0e 96 96 bd 20 e1 a6 bd 5b d8 ba bd
       -0.092703626 -0.073528394 -0.08148408 -0.09123298
000060 30 a1 cf bd 87 7e a7 bd 49 c7 b5 bd 13 1f aa bd
       -0.10138166 -0.0817843 -0.08875901 -0.08306708
000070 90 75 86 bd 0b c9 ac bd e4 99 81 bd ce 3b 9f bd
       -0.06565392 -0.084367834 -0.063281804 -0.07775079
000080 22 09 84 bd c4 29 86 bd 9e 60 8f bd e2 5e bd bd
       -0.064470544 -0.06550935 -0.0700085 -0.09246613
000090 eb b0 ab bd 09 ea 85 bd 55 4e 83 bd 95 79 98 bd
       -0.08383354 -0.06538779 -0.06411425 -0.07445065
0000a0 29 9e 96 bd 0e 14 a3 bd 95 ae 86 bd 4e 7a 87 bd
       -0.073543854 -0.079628095 -0.06576268 -0.06615125
0000b0 1e 55 9a bd bf 2f a4 bd ea dc 5e bd f5 e3 98 bd
       -0.07535766 -0.08016919 -0.0544099 -0.07465354
0000c0 ee f1 b0 bd 95 e8 9a bd 34 47 b6 bd 1e 35 9e bd
       -0.086398944 -0.07563893 -0.089003 -0.07724975
0000d0 9d f0 7b bd 53 38 77 bd 16 dc c0 bd ff 39 ae bd
       -0.061508764 -0.06035645 -0.09416978 -0.085071556
0000e0 5f 82 99 bd 40 d9 7e bd 7b db 9b bd 40 04 7a bd
       -0.074955694 -0.062218904 -0.07610222 -0.06103921
0000f0 b1 2c ac bd eb f9 93 bd 63 b6 8e bd 51 11 a5 bd
       -0.08406962 -0.072254024 -0.06968381 -0.080599435
000100 bc a1 ae bd bd d5 91 bd ed 95 71 bd 74 81 ab bd
       -0.08526942 -0.071208455 -0.05898087 -0.083743006
000110 94 7e 6f bd 22 d5 8a bd 68 0b 90 bd 50 a0 7e bd
       -0.058470324 -0.06778933 -0.070334256 -0.062164605
000120 ba bb 89 bd 10 9d 96 bd 82 c0 a6 bd b6 6a bc bd
       -0.06725259 -0.07354176 -0.08142187 -0.09200041
000130 2a 2c a4 bd 9a fa 6f bd d8 bc 98 bd 91 26 a1 bd
       -0.08016236 -0.0585886 -0.07457894 -0.07868684
000140 14 5e 95 bd 70 86 b3 bd dc 12 99 bd b8 78 b9 bd
       -0.072933346 -0.08765876 -0.074743 -0.090562284
000150 e1 7d 7c bd 75 2c a4 bd ca fd 89 bd f0 05 c3 bd
       -0.061643485 -0.08016292 -0.067378595 -0.09522617
000160 e5 ad a6 bd 51 c4 8f bd 6a b5 a5 bd 8f 5b 9c bd
       -0.081386365 -0.07019866 -0.080912426 -0.07634651
000170 6e ec a4 bd 13 e9 87 bd f4 66 ac bd 8c 45 93 bd
       -0.08052908 -0.06636252 -0.08418074 -0.071909994
000180 23 5e 87 bd 48 a8 b1 bd c4 fc a4 bd 01 98 a1 bd
       -0.06609752 -0.08674675 -0.08056024 -0.078903206
000190 7a 87 87 bd 72 ff 8c bd 52 a4 58 bd 1d d0 8f bd
       -0.06617637 -0.0688466 -0.052891083 -0.07022116
0001a0 5c 1e a2 bd 9b 32 99 bd d2 f7 82 bd 0a ff 89 bd
       -0.07915947 -0.07480355 -0.06394924 -0.06738098
0001b0 f1 7c ad bd be cc ae bd 89 cd 8e bd a8 2d 88 bd
       -0.08471096 -0.08535145 -0.069727965 -0.06649333
0001c0 82 0a a3 bd 0e 1c 9e bd ab e8 89 bd cb a4 a6 bd
       -0.079609886 -0.07720195 -0.06733831 -0.081369005
0001d0 29 df 8f bd be 1b a2 bd 0a 3d 5a bd ff 6a c3 bd
       -0.07024986 -0.07915448 -0.053280868 -0.09541892
0001e0 2e d2 a4 bd cd a1 bf bd 95 ad a0 bd d6 8d a4 bd
       -0.08047901 -0.09357033 -0.07845608 -0.080348656
0001f0 c3 6a 94 bd ec 93 b5 bd 77 1e a9 bd f1 81 9b bd
       -0.07246926 -0.088661045 -0.08257764 -0.07593144
000200 6e c0 82 bd 91 75 8b bd f0 93 8d bd e4 15 9f bd
       -0.06384359 -0.068095334 -0.069129825 -0.07767847
000210 02 2e af bd e9 9f af bd f1 5a 9e bd 84 87 9d bd
       -0.08553697 -0.08575422 -0.077321894 -0.07691863
000220 99 af ab bd 11 9c 8d bd 76 c8 99 bd c2 a7 66 bd
       -0.08383102 -0.06914533 -0.07508938 -0.05631233
000230 65 8a b3 bd dd 15 ae bd 4a e1 9d bd 8e b2 9c bd
       -0.08766631 -0.08500264 -0.07708986 -0.07651244
000240 6b 05 55 bd 55 0f b2 bd 4f 34 9c bd 3c 2e c8 bd
       -0.05200712 -0.086943306 -0.076271646 -0.097744435
000250 5c 6d a0 bd 07 dd a0 bd f5 b5 91 bd 54 82 9f bd
       -0.07833359 -0.078546576 -0.07114784 -0.0778853
000260 e8 59 a2 bd 78 44 81 bd 9d 1d 8d bd 53 51 7d bd
       -0.079273045 -0.063118875 -0.06890414 -0.061845135
000270 4e 9b 9d bd ab 78 8b bd 24 22 a3 bd a7 65 9a bd
       -0.07695638 -0.06810125 -0.07965496 -0.0753892
000280 ab 52 a2 bd 16 47 75 bd 10 e6 87 bd 42 a0 90 bd
       -0.07925924 -0.059882246 -0.06635678 -0.07061817
000290 36 3c 98 bd c7 84 8c bd 9d 12 af bd a7 9f 9c bd
       -0.07433359 -0.06861263 -0.08548472 -0.07647639
0002a0 78 f4 aa bd af b0 82 bd bb d9 af bd e5 dd a5 bd
       -0.0834741 -0.06381356 -0.08586451 -0.08098964
0002b0 ff 45 9e bd 17 5e 73 bd 2e b5 a0 bd 2d 5e 93 bd
       -0.077281944 -0.059415903 -0.07847057 -0.07195697
0002c0 f9 6f 8b bd 3d 4a 8c bd d2 88 88 bd a6 b3 72 bd
       -0.068084665 -0.06850097 -0.066667214 -0.059253357
0002d0 41 e0 91 bd 30 8c b7 bd d7 44 91 bd de be 8c bd
       -0.07122851 -0.089622855 -0.07093208 -0.068723425
0002e0 ec f8 80 bd 9f e9 a3 bd 0c ed 83 bd 82 76 9b bd
       -0.06297478 -0.08003544 -0.064416975 -0.07590963
0002f0 18 d4 80 bd 7e 68 97 bd 76 96 a2 bd fb ad ac bd
       -0.06290454 -0.07392977 -0.079388544 -0.08431622
000300 21 e6 9e bd ee a3 bf bd 59 5b 7b bd 1e 07 b2 bd
       -0.07758737 -0.09357439 -0.061366413 -0.08692764
000310 27 0d a7 bd 46 24 ac bd be 94 8f bd 69 b9 84 bd
       -0.081568055 -0.08405356 -0.07010792 -0.06480677
000320 3d 0f 8a bd 84 a3 9e bd 87 00 b5 bd eb e4 a4 bd
       -0.06741188 -0.07746032 -0.08837991 -0.08051475
000330 9b 94 86 bd 71 c6 6c bd 76 1e 87 bd ed 32 b5 bd
       -0.06571313 -0.057806436 -0.06597607 -0.08847604
000340 0d 48 9a bd 29 97 81 bd 5b 4a ab bd 24 de b8 bd
       -0.07533274 -0.0632766 -0.083637916 -0.09026745
000350 3e b1 9e bd f8 4d 92 bd cc fc c8 bd c0 fe 5a bd
       -0.0774865 -0.071437776 -0.09813842 -0.053465605
000360 c8 aa 93 bd aa 69 a7 bd 8f 9f bf bd 23 cf 99 bd
       -0.07210308 -0.08174451 -0.09356605 -0.07510211
000370 13 d1 5e bd a8 7a 94 bd 4f 37 ab bd 92 35 b6 bd
       -0.054398607 -0.07249957 -0.08360159 -0.088969365
000380 ea 0b 91 bd 88 09 a5 bd aa 97 90 bd f1 3f 90 bd
       -0.070823506 -0.080584586 -0.070601776 -0.07043446
000390 e1 13 a2 bd ba b7 c2 bd f2 da 94 bd 55 ba 85 bd
       -0.07913948 -0.09507699 -0.07268323 -0.06529681
0003a0 43 9f 94 bd 7a b5 a3 bd 85 5f 9e bd 66 42 93 bd
       -0.07256939 -0.07993598 -0.07733063 -0.07190399
0003b0 af d3 a3 bd ba a7 83 bd 6b d1 86 bd 48 8e 9e bd
       -0.0799936 -0.06428476 -0.06582912 -0.07741982
0003c0 61 66 87 bd 89 5a a3 bd 59 33 73 bd fb a4 74 bd
       -0.06611324 -0.079762526 -0.05937514 -0.05972765
0003d0 4e 3c 98 bd fb be 68 bd cc 76 bf bd a0 78 98 bd
       -0.07433377 -0.05682276 -0.093488306 -0.074448824
0003e0 8d df 81 bd de b5 ad bd 47 f1 a3 bd ad 35 86 bd
       -0.06341467 -0.08481954 -0.080050044 -0.065532066
0003f0 20 5f 78 bd bd f2 98 bd 06 cb 84 bd 37 fb a9 bd
       -0.060637593 -0.07468174 -0.06484036 -0.082998686

arr_0 f4 [1, 275]
000000 00 00 00 00 00 00 00 00 00 00 00 00 00 00 00 00
       0.0 0.0 0.0 0.0
000010 00 00 00 00 00 00 00 00 00 00 00 00 00 00 00 00
       0.0 0.0 0.0 0.0
000020 00 00 00 00 00 00 00 00 00 00 00 00 00 00 00 00
       0.0 0.0 0.0 0.0
000030 00 00 00 00 00 00 00 00 00 00 00 00 00 00 00 00
       0.0 0.0 0.0 0.0
000040 00 00 00 00 00 00 00 00 00 00 00 00 00 00 00 00
       0.0 0.0 0.0 0.0
000050 00 00 00 00 00 00 00 00 00 00 00 00 00 00 00 00
       0.0 0.0 0.0 0.0
000060 00 00 00 00 00 00 00 00 00 00 00 00 00 00 00 00
       0.0 0.0 0.0 0.0
000070 00 00 00 00 00 00 00 00 00 00 00 00 00 00 00 00
       0.0 0.0 0.0 0.0
000080 00 00 00 00 00 00 00 00 00 00 00 00 00 00 00 00
       0.0 0.0 0.0 0.0
000090 00 00 00 00 00 00 00 00 00 00 00 00 00 00 00 00
       0.0 0.0 0.0 0.0
0000a0 00 00 00 00 00 00 00 00 00 00 00 00 00 00 00 00
       0.0 0.0 0.0 0.0
0000b0 00 00 00 00 00 00 00 00 00 00 00 00 00 00 00 00
       0.0 0.0 0.0 0.0
0000c0 00 00 00 00 00 00 00 00 00 00 00 00 00 00 00 00
       0.0 0.0 0.0 0.0
0000d0 00 00 00 00 00 00 00 00 00 00 00 00 00 00 00 00
       0.0 0.0 0.0 0.0
0000e0 00 00 00 00 00 00 00 00 00 00 00 00 00 00 00 00
       0.0 0.0 0.0 0.0
0000f0 00 00 00 00 00 00 00 00 00 00 00 00 00 00 00 00
       0.0 0.0 0.0 0.0
000100 00 00 00 00 00 00 00 00 00 00 00 00 00 00 00 00
       0.0 0.0 0.0 0.0
000110 00 00 00 00 00 00 00 00 00 00 00 00 00 00 00 00
       0.0 0.0 0.0 0.0
000120 00 00 00 00 00 00 00 00 00 00 00 00 00 00 00 00
       0.0 0.0 0.0 0.0
000130 00 00 00 00 00 00 00 00 00 00 00 00 00 00 00 00
       0.0 0.0 0.0 0.0
000140 00 00 00 00 00 00 00 00 00 00 00 00 00 00 00 00
       0.0 0.0 0.0 0.0
000150 00 00 00 00 00 00 00 00 00 00 00 00 00 00 00 00
       0.0 0.0 0.0 0.0
000160 00 00 00 00 00 00 00 00 00 00 00 00 00 00 00 00
       0.0 0.0 0.0 0.0
000170 00 00 00 00 00 00 00 00 00 00 00 00 00 00 00 00
       0.0 0.0 0.0 0.0
000180 00 00 00 00 00 00 00 00 00 00 00 00 00 00 00 00
       0.0 0.0 0.0 0.0
000190 00 00 00 00 00 00 00 00 00 00 00 00 00 00 00 00
       0.0 0.0 0.0 0.0
0001a0 00 00 00 00 00 00 00 00 00 00 00 00 00 00 00 00
       0.0 0.0 0.0 0.0
0001b0 00 00 00 00 00 00 00 00 00 00 00 00 00 00 00 00
       0.0 0.0 0.0 0.0
0001c0 00 00 00 00 00 00 00 00 00 00 00 00 00 00 00 00
       0.0 0.0 0.0 0.0
0001d0 00 00 00 00 00 00 00 00 00 00 00 00 00 00 00 00
       0.0 0.0 0.0 0.0
0001e0 00 00 00 00 00 00 00 00 00 00 00 00 00 00 00 00
       0.0 0.0 0.0 0.0
0001f0 00 00 00 00 00 00 00 00 00 00 00 00 00 00 00 00
       0.0 0.0 0.0 0.0
000200 00 00 00 00 00 00 00 00 00 00 00 00 00 00 00 00
       0.0 0.0 0.0 0.0
000210 00 00 00 00 00 00 00 00 00 00 00 00 00 00 00 00
       0.0 0.0 0.0 0.0
000220 00 00 00 00 00 00 00 00 00 00 00 00 00 00 00 00
       0.0 0.0 0.0 0.0
000230 00 00 00 00 00 00 00 00 00 00 00 00 00 00 00 00
       0.0 0.0 0.0 0.0
000240 00 00 00 00 00 00 00 00 00 00 00 00 00 00 00 00
       0.0 0.0 0.0 0.0
000250 00 00 00 00 00 00 00 00 00 00 00 00 00 00 00 00
       0.0 0.0 0.0 0.0
000260 00 00 00 00 00 00 00 00 00 00 00 00 00 00 00 00
       0.0 0.0 0.0 0.0
000270 00 00 00 00 00 00 00 00 00 00 00 00 00 00 00 00
       0.0 0.0 0.0 0.0
000280 00 00 00 00 00 00 00 00 00 00 00 00 00 00 00 00
       0.0 0.0 0.0 0.0
000290 00 00 00 00 00 00 00 00 00 00 00 00 00 00 00 00
       0.0 0.0 0.0 0.0
0002a0 00 00 00 00 00 00 00 00 00 00 00 00 00 00 00 00
       0.0 0.0 0.0 0.0
0002b0 00 00 00 00 00 00 00 00 00 00 00 00 00 00 00 00
       0.0 0.0 0.0 0.0
0002c0 00 00 00 00 00 00 00 00 00 00 00 00 00 00 00 00
       0.0 0.0 0.0 0.0
0002d0 00 00 00 00 00 00 00 00 00 00 00 00 00 00 00 00
       0.0 0.0 0.0 0.0
0002e0 00 00 00 00 00 00 00 00 00 00 00 00 00 00 00 00
       0.0 0.0 0.0 0.0
0002f0 00 00 00 00 00 00 00 00 00 00 00 00 00 00 00 00
       0.0 0.0 0.0 0.0
000300 00 00 00 00 00 00 00 00 00 00 00 00 00 00 00 00
       0.0 0.0 0.0 0.0
000310 00 00 00 00 00 00 00 00 00 00 00 00 00 00 00 00
       0.0 0.0 0.0 0.0
000320 00 00 00 00 00 00 00 00 00 00 00 00 00 00 00 00
       0.0 0.0 0.0 0.0
000330 00 00 00 00 00 00 00 00 00 00 00 00 00 00 00 00
       0.0 0.0 0.0 0.0
000340 00 00 00 00 00 00 00 00 00 00 00 00 00 00 00 00
       0.0 0.0 0.0 0.0
000350 00 00 00 00 00 00 00 00 00 00 00 00 00 00 00 00
       0.0 0.0 0.0 0.0
000360 00 00 00 00 00 00 00 00 00 00 00 00 00 00 00 00
       0.0 0.0 0.0 0.0
000370 00 00 00 00 00 00 00 00 00 00 00 00 00 00 00 00
       0.0 0.0 0.0 0.0
000380 00 00 00 00 00 00 00 00 00 00 00 00 00 00 00 00
       0.0 0.0 0.0 0.0
000390 00 00 00 00 00 00 00 00 00 00 00 00 00 00 00 00
       0.0 0.0 0.0 0.0
0003a0 00 00 00 00 00 00 00 00 00 00 00 00 00 00 00 00
       0.0 0.0 0.0 0.0
0003b0 00 00 00 00 00 00 00 00 00 00 00 00 00 00 00 00
       0.0 0.0 0.0 0.0
0003c0 00 00 00 00 00 00 00 00 00 00 00 00 00 00 00 00
       0.0 0.0 0.0 0.0
0003d0 00 00 00 00 00 00 00 00 00 00 00 00 00 00 00 00
       0.0 0.0 0.0 0.0
0003e0 00 00 00 00 00 00 00 00 00 00 00 00 00 00 00 00
       0.0 0.0 0.0 0.0
0003f0 00 00 00 00 00 00 00 00 00 00 00 00 00 00 00 00
       0.0 0.0 0.0 0.0
